…
orflow-1.15.2/python3.6/tensorflow_core/python/ops/resource_variable_ops.py:1630: calling BaseResourceVariable.__init__ (from tensorflow.python.ops.resource_variable_ops) with constraint is deprecated and will be removed in a future version.\n","Instructions for updating:\n","If using Keras pass *_constraint arguments to layers.\n","Model: \"sequential\"\n","_________________________________________________________________\n","Layer (type)                 Output Shape              Param #   \n","=================================================================\n","conv2d (Conv2D)              (None, 30, 30, 96)        11712     \n","_________________________________________________________________\n","max_pooling2d (MaxPooling2D) (None, 14, 14, 96)        0         \n","_________________________________________________________________\n","conv2d_1 (Conv2D)            (None, 14, 14, 256)       614656    \n","_________________________________________________________________\n","max_pooling2d_1 (MaxPooling2 (None, 6, 6, 256)         0         \n","_________________________________________________________________\n","conv2d_2 (Conv2D)            (None, 6, 6, 384)         885120    \n","_________________________________________________________________\n","conv2d_3 (Conv2D)            (None, 6, 6, 384)         1327488   \n","_________________________________________________________________\n","conv2d_4 (Conv2D)            (None, 6, 6, 256)         884992    \n","_________________________________________________________________\n","max_pooling2d_2 (MaxPooling2 (None, 2, 2, 256)         0         \n","_________________________________________________________________\n","flatten (Flatten)            (None, 1024)              0         \n","_________________________________________________________________\n","dense (Dense)                (None, 4096)              4198400   \n","_________________________________________________________________\n","dropout (Dropout)            (None, 4096)              0         \n","_________________________________________________________________\n","dense_1 (Dense)              (None, 4096)              16781312  \n","_________________________________________________________________\n","dropout_1 (Dropout)          (None, 4096)              0         \n","_________________________________________________________________\n","dense_2 (Dense)              (None, 1000)              4097000   \n","_________________________________________________________________\n","dropout_2 (Dropout)          (None, 1000)              0         \n","_________________________________________________________________\n","dense_3 (Dense)              (None, 17)                17017     \n","=================================================================\n","Total params: 28,817,697\n","Trainable params: 28,817,697\n","Non-trainable params: 0\n","_________________________________________________________________\n"],"name":"stdout"}]},{"cell_type":"markdown","metadata":{"id":"OTiVlw9aAhlo","colab_type":"text"},"source":["## 載入數據"]},{"cell_type":"code","metadata":{"id":"mDcM
…
